…
where in the image).</p>\n\n<p>In my case location <em>is</em> important and I want my CNN to be aware of that. ie. the presence of a pattern at a specific location in the image means something very specific compared to if that feature or pattern appears elsewhere.</p>\n\n<p>At the moment my network looks like this (taken from an example somewhere):</p>\n\n<pre><code>_________________________________________________________________\nLayer (type)                 Output Shape              Param #   \n=================================================================\nconv2d_1 (Conv2D)            (None, 196, 178, 32)      896       \n_________________________________________________________________\nactivation_1 (Activation)    (None, 196, 178, 32)      0         \n_________________________________________________________________\nmax_pooling2d_1 (MaxPooling2 (None, 98, 89, 32)        0         \n_________________________________________________________________\nconv2d_2 (Conv2D)            (None, 96, 87, 32)        9248      \n_________________________________________________________________\nactivation_2 (Activation)    (None, 96, 87, 32)        0         \n_________________________________________________________________\nmax_pooling2d_2 (MaxPooling2 (None, 48, 43, 32)        0         \n_________________________________________________________________\nconv2d_3 (Conv2D)            (None, 46, 41, 64)        18496     \n_________________________________________________________________\nactivation_3 (Activation)    (None, 46, 41, 64)        0         \n_________________________________________________________________\nmax_pooling2d_3 (MaxPooling2 (None, 23, 20, 64)        0         \n_________________________________________________________________\nflatten_1 (Flatten)          (None, 29440)             0         \n_________________________________________________________________\ndense_1 (Dense)              (None, 32)                942112    \n_________________________________________________________________\nactivation_4 (Activation)    (None, 32)                0         \n_________________________________________________________________\ndropout_1 (Dropout)          (None, 32)                0         \n_________________________________________________________________\ndense_2 (Dense)              (None, 3)                 99        \n_________________________________________________________________\nactivation_5 (Activation)    (None, 3)                 0         \n=================================================================\nTotal params: 970,851\nTrainable params: 970,851\nNon-trainable params: 0\n_________________________________________________________________\n</code></pre>\n\n<p>The 'images' I'm training on are 180 x 180 x 3 pixels and each channel contains a different set of raw data.</p>\n\n<p>What strategies are there to improve my CNN to deal with this? I have tried simply removing some of the pooling layers, but that greatly increased memory and training time and didn't seem to really help.</p>\n", "pids": ["5736960e6e3b12023e520c34"], "flag": 1}
…
\">$7$</span>.</li>\n<li><span class=\"math-container\">$7$</span> must have two children different than its parents (<span class=\"math-container\">$4$</span> and <span class=\"math-container\">$6$</span>) and siblings (<span class=\"math-container\">$2$</span> and <span class=\"math-container\">$1$</span>). These must be <span class=\"math-container\">$3$</span> and <span class=\"math-container\">$5$</span>.</li>\n</ul>\n\n<p>All in all, we have the following <span class=\"math-container\">$2$</span>-dense graph with <span class=\"math-container\">$n=7$</span> nodes:</p>\n\n<pre><code>1-&gt;[2,3]  2-&gt;[4,5]  3-&gt;[4,6]  4-&gt;[1,7]  5-&gt;[1,6]  6-&gt;[2,7]  7-&gt;[3,5]\n</code></pre>\n\n<p>For <span class=\"math-container\">$k=3$</span>, I used a similar greedy algorithm (with more constraints) to construct the following graph:</p>\n\n<pre><code> 1-&gt;[2,3]    2-&gt;[4,5]    3-&gt;[6,7]    4-&gt;[6,8]     5-&gt;[7,9]\n 6-&gt;[10,11]  7-&gt;[12,13]  8-&gt;[1,9]    9-&gt;[10,14]  10-&gt;[2,12]  \n11-&gt;[1,13]  12-&gt;[8,15]  13-&gt;[4,14]  14-&gt;[3,15]   15-&gt;[5,11]\n</code></pre>\n\n<p>I used a computer program to check all possibilities with at most <span class=\"math-container\">$14$</span> nodes, and found none, so (assuming my program is correct) <span class=\"math-container\">$n=15$</span> is the minimum number required for <span class=\"math-container\">$k=3$</span>.</p>\n\n<p>This hints that the minimum number of nodes in a <span class=\"ma
…
